…
test_results =  {'mimic3-h': {'test_loss': 0.4608249053955078, 'f1_score': 0.7198879551820728, 'auc_or_topk': 0.8508809311655496}, 'mimic4-h': {'test_loss': 0.24667868456244468, 'f1_score': 0.743661971830986, 'auc_or_topk': 0.9296305957421193}, 'mimic3-m': {'test_loss': 100.6438017642498, 'f1_score': 0.2144932085663336, 'auc_or_topk': [0.26557106286013665, 0.3632958057721857, 0.42383426859477064, 0.4719875133364834]}, 'mimic4-m': {'test_loss': 92.69687088603527, 'f1_score': 0.24469900736051192, 'auc_or_topk': [0.2854095805863638, 0.3749995602431907, 0.4311128905307906, 0.4678522696796106]}}
train_results =  {'mimic3-h': {'model': Model(
  (graph_layer): GraphLayer(
    (fc): Linear(in_features=48, out_features=32, bias=True)
    (LeakyReLU): LeakyReLU(negative_slope=0.01)
  )
  (transition_layer): TransitionLayer(
    (gru): GRUCell(32, 150)
    (attention): SingleHeadAttentionLayer(
      (query_dense): Linear(in_features=32, out_features=32, bias=True)
      (key_dense): Linear(in_features=32, out_features=32, bias=True)
      (value_dense): Linear(in_features=32, out_features=150, bias=True)
    )
    (activation): Tanh()
  )
  (attention): EmbeddingWithAttentionLayer(
    (linear): Linear(in_features=150, out_features=32, bias=True)
  )
  (classifier): Classifier(
    (linear): Linear(in_features=150, out_features=1, bias=True)
    (activation): Sigmoid()
    (dropout): Dropout(p=0.0, inplace=False)
  )
), 'epoch_lrs': [0.01, 0.001, 0.0001, 1e-05, 1e-05, 1e-05, 1e-05, 1e-05, 1e-05, 1e-05, 1e-05, 1e-05, 1e-05, 1e-05, 1e-05, 1e-05, 1e-05, 1e-05, 1e-05, 1e-05], 'valid_losses': [… 'mean_losses': [… 'time_costs': ['4m13.3s', '4m17.8s', '4m20.6s', '4m15.7s', '4m15.6s', '4m16.6s', '4m14.9s', '4m12.6s', '4m14.6s', '4m16.6s', '4m15.7s', '4m20.0s', '4m19.6s', '4m18.4s', '4m16.7s', '4m18.1s', '4m16.3s', '4m15.9s', '4m15.5s', '4m15.4s'], 'f1_scores': [… 'auc_or_topks': [… 'mimic4-h': {'model': Model(
  (graph_layer): GraphLayer(
    (fc): Linear(in_features=48, out_features=32, bias=True)
    (LeakyReLU): LeakyReLU(negative_slope=0.01)
  )
  (transition_layer): TransitionLayer(
    (gru): GRUCell(32, 150)
    (attention): SingleHeadAttentionLayer(
      (query_dense): Linear(in_features=32, out_features=32, bias=True)
      (key_dense): Linear(in_features=32, out_features=32, bias=True)
      (value_dense): Linear(in_features=32, out_features=150, bias=True)
    )
    (activation): Tanh()
  )
  (attention): EmbeddingWithAttentionLayer(
    (linear): Linear(in_features=150, out_features=32, bias=True)
  )
  (classifier): Classifier(
    (linear): Linear(in_features=150, out_features=1, bias=True)
    (activation): Sigmoid()
    (dropout): Dropout(p=0.0, inplace=False)
  )
), 'epoch_lrs': [0.01, 0.001, 0.0001, 1e-05, 1e-05, 1e-05, 1e-05, 1e-05, 1e-05, 1e-05, 1e-05, 1e-05, 1e-05, 1e-05, 1e-05, 1e-05, 1e-05, 1e-05, 1e-05, 1e-05], 'valid_losses': [… 'mean_losses': [… 'time_costs': ['15m21.7s', '15m30.0s', '15m30.0s', '15m35.3s', '15m29.4s', '15m25.7s', '15m29.6s', '15m35.7s', '15m27.0s', '15m28.3s', '15m25.7s', '15m26.9s', '15m27.3s', '15m27.9s', '15m26.6s', '15m28.0s', '15m28.2s', '15m27.7s', '15m26.9s', '15m26.1s'], 'f1_scores': [… 'auc_or_topks': [… 'mimic3-m': {'model': Model(
  (graph_layer): GraphLayer(
    (fc): Linear(in_features=48, out_features=32, bias=True)
    (LeakyReLU): LeakyReLU(negative_slope=0.01)
  )
  (transition_layer): TransitionLayer(
    (gru): GRUCell(32, 150)
    (attention): SingleHeadAttentionLayer(
      (query_dense): Linear(in_features=32, out_features=32, bias=True)
      (key_dense): Linear(in_features=32, out_features=32, bias=True)
      (value_dense): Linear(in_features=32, out_features=150, bias=True)
    )
    (activation): Tanh()
  )
  (attention): EmbeddingWithAttentionLayer(
    (linear): Linear(in_features=150, out_features=32, bias=True)
  )
  (classifier): Classifier(
    (linear): Linear(in_features=150, out_features=4880, bias=True)
    (activation): Sigmoid()
    (dropout): Dropout(p=0.45, inplace=False)
  )
), 'epoch_lrs': [… 1e-05, 1e-05, 1e-05, 1e-05], 'valid_losses': [… 'mean_losses': [… 'time_costs': ['4m10.6s', '4m7.0s', '4m5.8s', '4m6.6s', '4m5.9s', '4m6.2s', '4m6.4s', '4m8.7s', '4m11.8s', '4m11.6s', '4m10.8s', '4m10.2s', '4m8.5s', '4m6.3s', '4m6.4s', '4m6.3s', '4m7.0s', '4m7.1s', '4m5.6s', '4m6.2s'], 'f1_scores': [… 'auc_or_topks': [[… 'mimic4-m': {'model': Model(
  (graph_layer): GraphLayer(
    (fc): Linear(in_features=48, out_features=32, bias=True)
    (LeakyReLU): LeakyReLU(negative_slope=0.01)
  )
  (transition_layer): TransitionLayer(
    (gru): GRUCell(32, 150)
    (attention): SingleHeadAttentionLayer(
      (query_dense): Linear(in_features=32, out_features=32, bias=True)
      (key_dense): Linear(in_features=32, out_features=32, bias=True)
      (value_dense): Linear(in_features=32, out_features=150, bias=True)
    )
    (activation): Tanh()
  )
  (attention): EmbeddingWithAttentionLayer(
    (linear): Linear(in_features=150, out_features=32, bias=True)
  )
  (classifier): Classifier(
    (linear): Linear(in_features=150, out_features=6037, bias=True)
    (activation): Sigmoid()
    (dropout): Dropout(p=0.45, inplace=False)
  )
), 'epoch_lrs': [… 1e-05, 1e-05, 1e-05, 1e-05], 'valid_losses': [… 'mean_losses': [… 'time_costs': ['15m4.2s', '15m12.4s', '15m12.6s', '15m13.0s', '15m13.9s', '15m14.5s', '15m13.8s', '15m13.0s', '15m15.1s', '15m15.1s', '15m15.1s', '15m13.8s', '15m14.8s', '15m15.8s', '15m15.3
…
